Saved Model/best_model.pth (torch, 59874 bytes, 74 tensors)

encoder.0.weight f4 [32, 1, 3, 3]
000000 09 86 45 40 0c 11 25 c0 37 82 dd 40 36 3a 17 c0
       3.0863059 -2.5791655 6.9221454 -2.362928
000010 9d 7a e4 c0 5c d5 87 c0 56 92 11 41 f1 dc 00 c0
       -7.1399674 -4.244795 9.098227 -2.0134852
000020 de 9f 88 40 64 96 2a c0 bb 27 2a c0 60 b9 29 42
       4.269515 -2.665429 -2.658675 42.43103
000030 3e 8b 2f bf 1d 17 05 c0 28 1b 8c 3f 7c 72 e7 3f
       -0.6857184 -2.0795357 1.0945787 1.8081813
000040 b4 a8 be bf 4a 8f 35 bf e8 bf 9b 40 ec 00 fc 3f
       -1.4895234 -0.70921767 4.867176 1.9687781
000050 fa 24 e7 bc c6 13 24 42 8d ef b8 40 0e b9 77 3f
       -0.028215874 41.01931 5.779242 0.96766746
000060 3b 6e a4 40 a5 38 09 bf fa 4e 42 3d e6 dd 52 be
       5.138456 -0.5360206 0.0474386 -0.2059246
000070 d9 62 bd bd b6 5f 79 3d 6b 47 7c be 80 e9 63 bd
       -0.09247369 0.060882293 -0.24636619 -0.055642605
000080 17 d3 38 3e 64 69 0e 3c 53 d7 97 be 8e cd 41 be
       0.18049274 0.008692119 -0.29656467 -0.18926069
000090 3d 84 2e c2 ea 3b 9a c2 74 bd dc c1 cd 0d 3f 40
       -43.62914 -77.11702 -27.592506 2.9852173
0000a0 78 c9 b6 40 e0 a0 ed c0 1a a1 f6 3f 7e 70 27 40
       5.7120934 -7.425888 1.9267914 2.616241
0000b0 c8 81 29 3f 5c c7 c6 c2 4f 83 dd bf 26 94 11 bf
       0.66213655 -99.38937 -1.7305697 -0.5686668
0000c0 fd f3 23 c0 ee e6 36 c0 4d 61 09 c0 79 78 db be
       -2.5617669 -2.8578448 -2.1465638 -0.4286535
0000d0 94 17 fe bf ba f9 40 c3 a6 38 58 40 1b 20 9f 40
       -1.9850945 -192.9755 3.3784575 4.972669
0000e0 a2 25 8b 40 48 a8 d2 40 10 a2 e2 40 da fd da 40
       4.348344 6.583042 7.082283 6.8434877
0000f0 41 61 8f 40 fc 43 b6 40 c4 61 9d 40 28 f5 4b 3f
       4.480622 5.695799 4.9181843 0.79670954
000100 b2 d0 f5 3f 5a a4 f7 3f 7e 5b ad 3f b2 25 d6 3e
       1.9204314 1.9347031 1.3543546 0.41825634
000110 ee 89 ef bf 40 9e 23 40 7b 02 e5 bf 03 9a b3 c3
       -1.8713968 2.5565338 -1.7891382 -359.20322
000120 65 15 b0 bf 34 9a 86 c0 73 95 2c c1 fe b2 b2 c0
       -1.3756529 -4.2063236 -10.786487 -5.5843496
000130 28 e0 ca c0 4f 46 9d c0 e1 44 40 c1 ee e9 8a c0
       -6.339863 -4.9148326 -12.016816 -4.341056
000140 fc 9f d5 bf 6e ed 9d 41 bc 9d 55 40 0e d7 db 3f
       -1.6689448 19.740932 3.3377523 1.7175004
000150 49 e0 a9 3e b5 b1 62 40 f3 4e 90 40 1b 0f 5c bf
       0.33178928 3.5420964 4.5096374 -0.8596055
000160 9e e0 27 3f 34 c2 cf 3f d9 22 9a 40 45 26 b9 40
       0.65577114 1.6231141 4.816754 5.7859216
000170 d4 6d b5 40 db 79 51 c1 1f 55 09 c0 59 f0 91 40
       5.6696568 -13.09225 -2.1458204 4.5605893
000180 60 a5 9f c1 08 a2 05 c0 8c c4 b7 40 7f 0b 78 40
       -19.95575 -2.0880146 5.7427425 3.8757017
000190 41 a9 b5 40 43 a8 8d 40 0b ec db 40 6a 09 ff 40
       5.676911 4.4267898 6.872564 7.969899
0001a0 b5 c2 c0 40 11 b1 a1 40 5c a0 a3 40 e0 51 20 40
       6.023768 5.0528646 5.113325 2.5049973
0001b0 ed c0 9b be 86 5d a0 bf 66 49 66 3d f7 ea 96 3f
       -0.30420628 -1.2528541 0.056222342 1.1790456
0001c0 d7 02 41 40 69 45 46 be 57 fd 57 40 64 06 3f 42
       3.0157983 -0.19362415 3.3748376 47.75624
0001d0 8f 27 88 40 09 77 9a c0 e7 81 20 c1 49 cc 23 c1
       4.254829 -4.8270307 -10.031714 -10.237374
0001e0 d4 81 48 40 cd 82 bb c0 37 07 56 c1 14 6a 14 41
       3.132924 -5.859717 -13.376761 9.275898
0001f0 54 02 02 c0 d5 e3 9d c0 00 05 01 bc 10 02 85 3d
       -2.031392 -4.9340615 -0.007874727 0.06494534
000200 a0 24 b3 3d 7b 3f 20 be 60 b9 6d bd a0 bd 5e 3d
       0.0874722 -0.15649216 -0.058038116 0.05438006
000210 4e f1 33 be 90 70 a2 be 7a b5 82 be 08 0d 97 3f
       -0.17572519 -0.31726503 -0.2552908 1.1800852
000220 06 fe 54 3f 86 47 74 3f bb 2c 31 3f d4 dd a4 c0
       0.8320011 0.95421636 0.6920888 -5.1520786
000230 64 c5 6a c1 04 c7 cf 3f eb 10 7e c3 08 94 2d 3e
       -14.673191 1.623261 -254.06609 0.16951
000240 2f a7 ce be f8 d5 0c bd 40 f0 9a be 29 40 8c be
       -0.40361926 -0.034383744 -0.3026142 -0.273927
000250 48 3b d5 bc 05 dd c1 be 6e 99 99 be 5a 89 1b bd
       -0.026029244 -0.37863937 -0.2999987 -0.037972786
000260 c8 e4 dd be 80 ca 16 c2 60 df d6 3f d4 a1 b5 3f
       -0.4333861 -37.697754 1.6786919 1.4190011
000270 4a bb 4d c3 65 81 b6 3f 57 a7 16 40 0f 91 47 c0
       -205.7316 1.4258238 2.3539636 -3.1182287
000280 5d b9 8c 3f 47 3b f3 3f 1d 40 1c 40 53 92 5b c0
       1.0994068 1.9002465 2.4414132 -3.430806
000290 c5 e3 23 bd b0 94 d4 c3 69 b5 d8 c0 7d ad 5c bd
       -0.04001214 -425.16162 -6.772145 -0.05387639
0002a0 3c e5 98 3f 66 c4 88 3e 03 c8 27 3e d8 58 99 c0
       1.1944957 0.2671234 0.16384892 -4.792095
0002b0 62 ee 27 c0 a6 69 36 41 5d 7c b9 c0 22 66 89 c0
       -2.6239247 11.400793 -5.796431 -4.2937174
0002c0 79 3e 8b bf 7a da 9e c0 28 7d c6 c0 1a 24 75 c0
       -1.087844 -4.9641695 -6.202778 -3.8303285
0002d0 c3 55 e2 bd 60 45 2a c2 70 35 d2 c0 34 4e 78 c2
       -0.11051514 -42.56775 -6.569023 -62.07637
0002e0 be 2b d8 40 b3 d0 62 c2 ec ce d2 c0 e8 8a 84 c2
       6.7553396 -56.703808 -6.587759 -66.2713
0002f0 46 16 3e be 26 ed 40 40 17 fc 80 40 0a fc 5d 40
       -0.18563184 3.0144744 4.0307727 3.4685082
000300 c5 cc a7 40 62 b3 a9 40 08 2a a9 40 17 0a 71 40
       5.2437463 5.3031473 5.286381 3.7662408
000310 69 03 88 40 ac f4 5a 40 67 ee 9e 40 0c 31 16 3f
       4.2504163 3.4211836 4.966602 0.5866859
000320 42 0c b7 c1 92 2f b1 40 04 ee 58 bf c9 57 75 c1
       -22.880985 5.537057 -0.84738183 -15.333932
000330 60 26 a7 40 4f c2 4c 40 c1 17 a3 40 f0 18 9c be
       5.2234344 3.1993597 5.0966496 -0.30487776
000340 87 b9 a8 be ca c9 a2 3c 4b dd 3b be b3 2e 7a be
       -0.32954046 0.019871611 -0.18346135 -0.24431877
000350 ba 8a 8d bd 4d 99 e5 3d dc 45 7a 3d a1 bd 24 be
       -0.069112256 0.112108804 0.06110178 -0.16087963
000360 e8 a7 b1 c0 a2 31 e8 c0 67 5a 8e c0 41 a2 d4 c0
       -5.5517464 -7.2560587 -4.4485354 -6.6448064
000370 8d b6 0c c1 61 59 70 c0 ac 07 82 c0 0a f1 8f c0
       -8.794568 -3.7554553 -4.0634365 -4.4981737
000380 96 e5 10 c0 9e 69 e2 bb b3 87 22 c0 93 01 fb 3f
       -2.2640128 -0.006909563 -2.5395324 1.9609855
000390 5b 5a a2 be 00 1a e7 c3 10 b4 12 c0 61 bd 03 3f
       -0.3170956 -462.20312 -2.2922401 0.51460844
0003a0 4c 58 25 c0 ad 9a a2 3e a7 a3 db bc ed e4 a7 be
       -2.5835142 0.31758633 -0.026811434 -0.32791844
0003b0 ec 2a 58 3e cd a4 38 be 2c 93 5a be e0 e9 1d be
       0.21110123 -0.18031617 -0.21345204 -0.15421247
0003c0 39 da 45 3c 05 22 4e 3d 2e 5c c4 be ae 4d 48 bd
       0.012075954 0.050325412 -0.38351578 -0.048902206
0003d0 ae 1f 95 be 6e ee 74 bd 2b 46 2e 3d 9c d2 3d 3e
       -0.29125732 -0.059797697 0.042547386 0.18537372
0003e0 a2 1b a4 be 90 40 06 be a0 cf 04 3e 88 49 81 be
       -0.32052332 -0.13110566 0.12969828 -0.25251412
0003f0 7d e6 3e c0 95 40 06 c0 2e 6f e0 bf 4c 1c f5 bf
       -2.982818 -2.0976918 -1.7533929 -1.914926

encoder.0.bias f4 [32]
000000 1a b5 7c 41 e7 1b 19 41 8f da 16 40 ab 2f 93 be
       15.794214 9.569312 2.3570898 -0.28747305
000010 c1 cb db 3e 03 9a 30 40 52 cd 00 41 02 c1 e1 3f
       0.4292889 2.7594001 8.050127 1.7637026
000020 95 19 fc 40 36 f8 51 40 e6 35 bf c0 8a 37 cf 3e
       7.878123 3.2807746 -5.9753294 0.4047206
000030 82 5b 56 40 3a 5e c5 bf 02 08 9c be 8a 33 76 40
       3.3493352 -1.5419381 -0.3047486 3.8468957
000040 39 9f 8b be 7a 62 98 3f 18 a6 80 40 7a be 29 c0
       -0.27269915 1.1905053 4.020275 -2.6522508
000050 dd 94 14 3e 70 21 15 c1 f2 3a 49 c0 1b f0 b4 be
       0.14509912 -9.320663 -3.1442227 -0.35339436
000060 0d 5b 3c 42 5c 76 b1 40 75 b1 ac be 5f a7 bd be
       47.088917 5.545698 -0.3372914 -0.37041757
000070 3d cf 8f 40 b5 e3 0e 40 16 2c 84 3f cf ba f1 3d
       4.4940476 2.2326481 1.0325954 0.11803209

encoder.2.weight f4 [32]
000000 40 79 99 3f fb 54 03 40 71 96 1f 40 d7 00 66 3f
       1.1990128 2.0520618 2.4935572 0.8984503
000010 bd 68 9e 3f 37 ac 50 40 98 6a 3f 41 0b 3a ea 3f
       1.2375714 3.2605112 11.963524 1.8298963
000020 fa a7 8a 40 ac 43 47 40 6f b7 a7 3f eb d8 03 41
       4.333005 3.1135054 1.3102854 8.2404585
000030 f1 3b fd 3f 19 11 8f 3f 00 00 80 3f 33 1d c5 3f
       1.9783918 1.1177093 1.0 1.5399536
000040 7e e6 6e 3f 67 a3 bf 3f b6 a2 f7 3f 40 94 8a 3f
       0.93320453 1.4971741 1.934653 1.0826492
000050 54 75 9f 3f eb 56 42 41 5d a2 c9 3f 78 9e 6f 3f
       1.2457681 12.14622 1.5752674 0.9360118
000060 b9 fc af 40 84 66 1a 40 54 f3 64 3f 63 0b 57 3f
       5.4996 2.412507 0.8943379 0.8400175
000070 d6 6f d5 3f 2a b5 0a 40 de 8f 94 3f 22 54 ee 3f
       1.6674755 2.1673074 1.1606405 1.8619425

encoder.2.bias f4 [32]
000000 62 d1 e7 3d 8f aa 12 3e 79 ac 4f 3f 17 a7 cc c0
       0.113192335 0.14322875 0.8112255 -6.3953967
000010 1d 09 5a bd 1a 12 03 c0 d2 03 00 40 73 c2 14 bf
       -0.053231347 -2.0479798 2.0002332 -0.58109206
000020 a0 82 1f c0 f3 a0 2d 3f fc 54 95 3e 18 9e f7 bd
       -2.4923477 0.67823714 0.291664 -0.12090701
000030 98 15 29 3f f5 ec 03 3e f8 fa 3f 41 07 d3 35 bf
       0.66048574 0.1288336 11.998772 -0.7102513
000040 7f fa a7 bb 47 ce 53 bd 88 c8 68 bf 45 1e 04 3e
       -0.005126297 -0.051710393 -0.90930986 0.12902172
000050 93 17 10 bf 47 9f 21 40 3e cc 99 3e 52 4a 56 41
       -0.5628597 2.5253465 0.30038637 13.393145
000060 29 5c 27 c0 e4 80 94 bf 6e 0b 4c 41 3f 48 60 c1
       -2.615 -1.1601834 12.75279 -14.017638
000070 e0 cb 6c be 6c 5b 23 bf 41 09 21 be c0 5f c2 3e
       -0.23124647 -0.63811374 -0.15726186 0.37963676

encoder.2.running_mean f4 [32]
000000 ff 23 82 41 2c 92 4d 41 d4 cf fc 40 04 00 00 00
       16.267576 12.8481865 7.9003696 6e-45
000010 85 6e fc 3e 8b e6 fc 3f 33 1f 49 41 ed 35 f0 3f
       0.4930307 1.9757856 12.570117 1.8766457
000020 17 bb bf 40 d3 50 d0 40 d8 a1 a6 3e 64 40 9b 40
       5.991588 6.509866 0.32545352 4.85161
000030 a0 3a 0c 41 84 b6 06 3e 00 00 00 00 65 91 4d 40
       8.764313 0.13155562 0.0 3.2119992
000040 04 00 00 00 5b f4 a0 3f 4a 47 55 40 47 32 e5 3d
       6e-45 1.2574571 3.3324761 0.1119123
000050 19 c0 ed 3d 26 8d be 3f 32 bc 09 3f 04 00 00 00
       0.11608905 1.4886825 0.5380279 6e-45
000060 c1 aa 2a 42 e0 45 94 40 04 00 00 00 04 00 00 00
       42.66675 4.6335297 6e-45 6e-45
000070 15 e2 93 40 da 0d 06 40 98 54 82 3f 54 3a 55 3f
       4.621348 2.0945954 1.0182066 0.83292127

encoder.2.running_var f4 [32]
000000 6e 2f ce 40 b4 58 d5 42 af 14 3f 43 04 00 00 00
       6.4432898 106.67325 191.0808 6e-45
000010 40 af 5c 3f d0 05 b9 3f ca c0 ab 42 c3 8b f0 3f
       0.8620491 1.4454899 85.87654 1.8792652
000020 c6 a7 1c 41 76 c4 4f 42 58 5d 1b 40 c1 60 a9 42
       9.79096 51.941856 2.4275723 84.68897
000030 ac b5 4b 43 2f d5 3c 3f 04 00 00 00 b8 74 28 40
       203.70966 0.7376279 6e-45 2.632124
000040 04 00 00 00 66 c6 c5 3f e8 45 1e 40 c5 88 18 3f
       6e-45 1.5451171 2.4730167 0.59583694
000050 6c 90 63 3d dc 79 91 41 08 3b 8f 40 04 00 00 00
       0.055557653 18.184502 4.475956 6e-45
000060 75 38 a9 42 87 94 7b 40 04 00 00 00 04 00 00 00
       84.61027 3.9309404 6e-45 6e-45
000070 f9 6d f9 40 d7 01 e1 3f 16 69 fa 3f f8 2b d9 40
       7.7946744 1.7578686 1.956332 6.7866173

encoder.4.weight f4 [16, 32, 3, 3]
000000 db 7e 33 be 77 78 81 40 d0 16 0d c0 49 ad 07 c1
       -0.1752886 4.045955 -2.2045174 -8.479806
000010 b1 5b 86 c0 28 46 a6 c0 e5 ac 4b bf 07 af 63 c1
       -4.198693 -5.196064 -0.7956069 -14.230231
000020 a0 73 08 41 80 0e c1 bf 5b c9 c0 40 ec df 05 c1
       8.528229 -1.508255 6.0245795 -8.367168
000030 05 12 4b c1 12 08 85 c0 0a be db 3e 71 78 1a 41
       -12.691899 -4.157235 0.42918426 9.654405
000040 3e 33 ea c0 46 b8 52 c0 00 6d 44 bf 78 a8 2d c1
       -7.318755 -3.2924972 -0.7672882 -10.85363
000050 04 ab cb 3f 4b 0d f0 3f f2 04 95 3d 55 24 e2 bf
       1.5911565 1.8754057 0.07276334 -1.7667338
000060 f7 08 07 c1 18 75 a7 bf 92 33 e7 40 b8 1f 5f 40
       -8.439689 -1.3082609 7.225045 3.486311
000070 02 84 1f 3f d3 18 8f be 16 32 8d c0 58 7d a3 c0
       0.623108 -0.27948627 -4.412364 -5.1090508
000080 12 9e 71 40 63 70 4c bf 92 77 32 c0 1e 21 bf 40
       3.7752728 -0.7985899 -2.788548 5.9727926
000090 50 42 68 40 42 13 f4 3f 5d e8 b1 3f 0b 69 13 41
       3.6290474 1.9068377 1.3899037 9.213145
0000a0 f3 aa be 3f 1a df d9 40 f9 cd c4 40 4c 01 1e 41
       1.489592 6.808484 6.150143 9.875317
0000b0 3f 0d 3a 3f 26 0e 06 41 32 a4 9b 41 78 62 86 40
       0.7267646 8.378454 19.455173 4.19952
0000c0 6e 50 38 41 5c a0 34 41 2f 19 8c 41 9a 66 29 bf
       11.519636 11.28915 17.512297 -0.6617218
0000d0 5c 11 0e 41 72 1d 0a 41 d1 3e 67 3e 9c 76 7d 40
       8.879238 8.632189 0.22582556 3.9603643
0000e0 6b 41 06 41 24 17 a9 c0 3f 0f 7f bd 0a 73 8a bf
       8.390971 -5.284075 -0.0622704 -1.0816357
0000f0 e0 61 69 40 69 5f 84 c0 ef 82 cc c0 63 3b 90 c0
       3.6465988 -4.1366467 -6.390983 -4.5072494
000100 d6 39 ed c0 31 32 a2 3f 4d 75 9d c0 fd e4 51 c0
       -7.41331 1.2671567 -4.920569 -3.2796013
000110 30 91 c1 c0 db 5b 0c c1 f1 f7 d9 c0 12 f0 fc c0
       -6.048973 -8.772426 -6.8115163 -7.9043055
000120 4b ee 3a c0 47 d7 84 c1 cb c5 42 c1 04 a5 53 c0
       -2.9207942 -16.605116 -12.173289 -3.3069468
000130 c1 88 fd c0 79 bc 9b c1 9c 18 4b bf dc 97 77 40
       -7.9229436 -19.467028 -0.79334426 3.8686438
000140 d2 ff 63 40 37 59 f5 40 f6 ae b6 40 38 2e 91 c0
       3.562489 7.6671405 5.7088575 -4.536892
000150 18 1b 1a 40 01 ef 0f 41 2c 24 c0 40 59 9f 12 c1
       2.4079037 8.995851 6.0044155 -9.163903
000160 55 8f 98 c0 07 0f 94 c0 94 09 71 3f a0 dc 9e be
       -4.7674966 -4.6268344 0.9415524 -0.310277
000170 ba 37 16 c0 23 72 36 40 c7 2f 58 bf 47 e5 3f bf
       -2.3471513 2.8507164 -0.844479 -0.74959224
000180 3f 1c 2a c0 50 f4 01 40 b5 0f e3 40 5c 8e 22 41
       -2.657974 2.0305367 7.0956674 10.159756
000190 a4 60 ac 40 a3 32 bb 40 0a 8c 82 c0 32 4c 00 41
       5.386797 5.8499312 -4.0795946 8.018602
0001a0 da f2 70 3f c2 71 c2 40 ad 6c 9d c0 17 e7 b6 bf
       0.9412056 6.0763865 -4.919516 -1.4289273
0001b0 4c cb d2 be c6 05 64 c0 ed 61 10 41 91 14 f6 40
       -0.41170728 -3.5628524 9.023908 7.6900105
0001c0 d2 be fd c0 13 9c 97 3f 49 db f1 c0 81 76 9d bf
       -7.9295435 1.1844505 -7.558018 -1.230179
0001d0 6f de 95 c0 24 c6 75 40 c4 59 38 41 6a ec b7 40
       -4.6834025 3.8402185 11.521915 5.747609
0001e0 0d c8 c7 bd a6 bd 9e c1 6e 62 5f 41 c3 ab ec 40
       -0.097549535 -19.842602 13.961531 7.395967
0001f0 18 3f d5 40 fd 48 eb 40 e8 2b 62 c0 c6 4f 4d 3e
       6.663952 7.3526597 -3.5339298 0.20049962
000200 70 b6 2b 3e 1b 2c 87 40 3b 25 c0 40 64 6a 75 c0
       0.16768813 4.224134 6.0045447 -3.8346186
000210 ff 91 df 3d 61 37 42 40 6b ab ca c0 c1 71 14 c0
       0.109165184 3.03463 -6.333425 -2.319443
000220 3b 7e 0d c1 71 81 af bf 8e de 70 c0 98 04 3e 40
       -8.843318 -1.3711377 -3.7635837 2.9690304
000230 03 1e 96 c0 51 1f 81 c0 1b 67 6f 40 b2 e4 24 3f
       -4.6911635 -4.035073 3.740668 0.6441146
000240 38 e6 1e bf 61 11 c1 3e 03 49 99 3e 7f 30 f1 3d
       -0.62070036 0.37708572 0.29938516 0.11776828
000250 e6 fd 3b 3f 6c 64 a1 be bb c5 73 be b7 c0 d5 3e
       0.73434293 -0.31521928 -0.23805897 0.41748592
000260 6b 3f 03 bf 1b a2 e4 c0 ea e7 b4 bf f1 34 c8 c0
       -0.51268643 -7.1447883 -1.4133275 -6.2564626
000270 7c 0d 0e c0 29 a0 de 40 6c 01 df bf a7 7d 06 41
       -2.219573 6.957051 -1.7422309 8.405677
000280 5c fe 96 c0 34 9d 8d be 2c c9 01 c0 cb 2a 05 c1
       -4.7185497 -0.27659 -2.0279036 -8.3229475
000290 8a 9c b3 c0 a9 47 58 40 56 d2 d0 bf 06 7c 11 c0
       -5.612859 3.3793738 -1.631419 -2.2731948
0002a0 16 a3 9d 40 7e 81 80 41 01 86 c2 c0 61 84 c5 40
       4.926158 16.063229 -6.078858 6.1724095
0002b0 b5 06 16 41 16 12 8c 40 98 b2 55 40 a7 9d c1 40
       9.376637 4.3772078 3.3390255 6.0504947
0002c0 0e 55 b0 40 95 76 23 40 5b 96 bd 40 96 e4 4f 40
       5.5103827 2.5541127 5.924604 3.2483268
0002d0 91 66 fc 3d 50 18 5b c0 7e fa 19 c1 08 b4 fe 3f
       0.123242505 -3.423359 -9.623655 1.9898691
0002e0 c6 ba d9 3f b6 25 a4 c0 9b f8 40 3e 68 11 78 40
       1.7010124 -5.1296034 0.18844835 3.8760624
0002f0 29 10 4c 40 8d 3d c8 b8 03 c6 46 c0 dd e9 ff c0
       3.1884863 -9.548208e-05 -3.1058357 -7.997298
000300 3b 1b 5d 3f 23 8e da bf 49 e7 9c 3d 44 6d 5c c0
       0.86369675 -1.7074627 0.07661302 -3.444169
000310 54 7a 2d 40 75 ac 99 40 ac 8f 11 bf 83 e3 f5 3f
       2.7105913 4.802302 -0.5685985 1.9210056
000320 23 4b 0f 40 99 d2 ae c0 23 0e e1 c0 26 5a e8 c0
       2.238961 -5.4632077 -7.0329757 -7.2610044
000330 9b 1a d5 40 01 43 77 c0 0c 03 e1 bf 95 24 8b c0
       6.6594977 -3.8634646 -1.7579055 -4.3482156
000340 de 46 00 bf eb 25 83 be f8 41 81 40 b2 81 c2 40
       -0.50108135 -0.25614867 4.039303 6.078332
000350 84 4c 61 c0 ec 77 7c 3e 2f d9 5a 40 30 21 b9 c0
       -3.5202951 0.24655122 3.4195058 -5.785301
000360 c0 8e 7b 40 00 16 56 40 c6 27 2a c0 3a 6b 44 c0
       3.9305878 3.3450928 -2.6586776 -3.0690446
000370 e2 15 39 41 f6 5a 8f 3e 99 fa bf c0 a0 04 28 c1
       11.5678425 0.27999085 -5.9993405 -10.501129
000380 40 d8 50 c0 8f ef 0f 41 f0 ae 6f c0 dd 34 fe 3e
       -3.2631989 8.995986 -3.7450523 0.49649706
000390 0c 26 9b 40 da d8 22 41 0e 94 4a be 97 6d ff 3f
       4.8483944 10.177942 -0.19783041 1.9955319
0003a0 70 f5 ca 40 f2 67 8a 40 bc ad 87 c0 46 25 ca bc
       6.3424606 4.3251886 -4.239958 -0.024675976
0003b0 bb f2 af be f7 de 82 40 01 e1 c2 40 64 47 6d c0
       -0.34364876 4.0897174 6.0899663 -3.7074823
0003c0 a0 2f c9 3e 9b a6 67 40 b2 68 bb c0 46 02 96 40
       0.39294147 3.6195438 -5.85653 4.6877775
0003d0 56 00 d4 3e ee 70 32 bd 4f f2 83 c0 59 40 ca c0
       0.41406506 -0.04356473 -4.1233287 -6.320355
0003e0 8a 7d 65 40 e9 54 dd be 21 f3 64 c0 d1 a0 bf 40
       3.5857873 -0.43228844 -3.5773394 5.988381
0003f0 6d 19 3b c0 90 07 a9 bf 77 cd f0 40 d9 f9 66 c0
       -2.9234269 -1.3205433 7.525081 -3.6089995

encoder.4.bias f4 [16]
000000 d3 8f ba 40 59 31 d2 40 37 03 e9 40 32 71 02 40
       5.8300567 6.568524 7.2816424 2.038159
000010 69 4d 5e c0 15 e3 ae 40 26 17 fb 3e c7 57 43 3b
       -3.4734747 5.46522 0.49041098 0.0029806958
000020 30 00 7b 40 4d ed d1 3e 03 54 a1 41 3b 04 fa 40
       3.9218864 0.4100136 20.166021 7.8130164
000030 2c 0f 5c 41 f2 1f 95 3f 89 87 58 40 cb 0b 23 41
       13.753704 1.1650374 3.3832724 10.190379

encoder.6.weight f4 [16]
000000 d8 15 ea 3f 98 f7 50 40 0f f5 ca 40 53 8f 03 41
       1.8287916 3.265112 6.3424144 8.222491
000010 b3 5b 9b 3f 82 d3 8a 40 d7 55 54 40 08 6d 78 40
       1.2137359 4.338319 3.3177392 3.8816547
000020 73 f0 8a 3f 3d db cd 40 2b ae dc 41 1c b7 18 40
       1.0854629 6.4330125 27.585043 2.386176
000030 e3 33 c6 40 2e b5 27 40 cb 60 39 40 ea e9 a0 40
       6.193834 2.6204333 2.8965328 5.028554

encoder.6.bias f4 [16]
000000 1c a8 33 41 8a 89 a9 c0 44 03 9d c0 e7 45 fd c0
       11.228542 -5.2980394 -4.9066486 -7.914783
000010 bd dd d7 bf b3 4e 74 40 15 b6 90 c0 bc 5c 00 c1
       -1.6864544 3.8173034 -4.522227 -8.02264
000020 f6 5f c0 bf 3b b5 cf be 0b cb b9 3f a0 58 8c 3f
       -1.5029285 -0.40567955 1.4515089 1.0964546
000030 6f ca 3d c0 89 c5 d0 40 c8 89 24 c0 5c dc c4 3e
       -2.9654806 6.524113 -2.5709095 0.3844937

encoder.6.running_mean f4 [16]
000000 0b 49 d7 42 37 f8 a1 44 ec 16 71 43 39 98 09 45
       107.64266 1295.7567 241.08954 2201.514
000010 29 c1 a9 42 2b d8 05 45 22 74 20 45 87 4e 7d 45
       84.877266 2141.5105 2567.2583 4052.908
000020 f2 05 ca 42 f2 6c 01 42 ed 0d 32 44 86 56 00 44
       101.01161 32.35639 712.2176 513.3519
000030 74 60 1c 44 a0 ae 75 42 52 08 76 44 9d fe aa 44
       625.5071 61.420532 984.13 1367.9567

encoder.6.running_var f4 [16]
000000 29 f5 25 47 da f4 c4 48 de a3 0b 48 cd 6c 9f 48
       42485.16 403366.8 142991.47 326502.4
000010 53 e8 58 46 7d 9c b8 48 1f da 23 49 3d 9f a5 49
       13882.081 378083.9 671137.94 1.3567756e+06
000020 09 30 36 47 d0 f9 48 46 c1 85 b2 48 3e cb cf 47
       46640.035 12862.453 365614.03 106390.484
000030 5a bf e7 48 c5 6f bd 46 bc bd f6 48 46 79 41 49
       474618.8 24247.885 505325.88 792468.4

encoder.8.weight f4 [8, 16, 3, 3]
000000 0c ed 03 41 56 31 00 41 b2 c8 01 40 74 74 09 41
       8.245373 8.012045 2.0278745 8.590931
000010 10 c0 7f 40 71 45 4e bc f2 35 ac 3d 0e 8b 4c bf
       3.9960976 -0.012589798 0.08408727 -0.7989968
000020 9e 6e 8a c0 a6 4b 06 40 91 f1 b6 c0 3b 05 e7 bf
       -4.326003 2.0983672 -5.716988 -1.8048471
000030 15 56 62 40 6d 6d 82 3e 46 82 82 bf 53 ac a4 40
       3.536504 0.2547411 -1.0196006 5.1460357
000040 a2 ca 1d 3f ca 17 f8 40 09 e0 b1 40 ac 2d c8 40
       0.6163732 7.752904 5.558598 6.255575
000050 b1 e5 28 41 aa 0b fd 3f 77 b8 4a 40 28 c7 8b 40
       10.556077 1.9769185 3.1675088 4.368061
000060 8e 10 c7 3f fb cb e4 be 92 72 94 40 a9 b3 04 c1
       1.5551927 -0.44686875 4.6389856 -8.293862
000070 63 31 cf c0 54 3e 25 c1 87 a9 4e c0 c5 62 8c c0
       -6.4747787 -10.327717 -3.2290971 -4.387057
000080 77 a3 be c0 ad af 9f bf 45 54 a8 bf 97 61 85 c0
       -5.957454 -1.2475487 -1.3150717 -4.168163
000090 0a 2e 2d c0 d5 31 69 c0 49 c3 0d 40 cb a7 b0 c0
       -2.705935 -3.6436665 2.2150443 -5.5204825
0000a0 a4 6c 3f c0 19 c6 44 c0 1c fc fd bf 96 93 07 c1
       -2.991006 -3.074591 -1.9842563 -8.473532
0000b0 50 32 93 3f 4e 84 25 41 2f a7 b1 40 54 17 14 40
       1.1499729 10.344801 5.551658 2.3139238
0000c0 ed 30 d8 40 0f aa 2d 3f cd bd 11 40 c2 d1 c6 3d
       6.7559724 0.67837614 2.2772095 0.09707977
0000d0 d0 e7 74 3f c7 28 b1 c0 e8 e2 12 c1 0e 03 0a bf
       0.9566622 -5.5362277 -9.180397 -0.5391091
0000e0 5b 9e 07 c0 c5 cb bf bc 66 47 03 3f f2 e0 e4 3e
       -2.1190403 -0.023412595 0.5128082 0.4470287
0000f0 85 a5 08 40 ab 24 e3 3f 4d e0 36 bf 3f a0 04 c0
       2.1351025 1.7745565 -0.71436006 -2.0722806
000100 15 a7 15 c0 08 b4 70 bf 2b 43 ab c0 0d 14 db 3f
       -2.3383229 -0.94024706 -5.351949 1.7115494
000110 0d 7b 76 40 33 ba 9b 3e ce 46 d2 40 5c 80 c8 3f
       3.8512604 0.30415496 6.571143 1.5664172
000120 cc f0 0b c1 62 2d 4f c0 46 68 35 40 6f 50 59 3f
       -8.746288 -3.237145 2.8344893 0.84888357
000130 2d 7d 11 3f 7a 28 a9 40 9f 80 78 40 1c cc 37 c0
       0.5683163 5.286191 3.8828504 -2.8718328
000140 ad 57 20 c1 4f 82 ce c1 ee 8e e2 c0 ca 63 23 bf
       -10.021405 -25.813627 -7.0799475 -0.6382414
000150 fd 73 05 41 0f 46 dc 40 67 fb 92 40 a5 82 bb 40
       8.340817 6.883552 4.593189 5.859698
000160 19 7d 61 bf 4b 65 0a 40 44 18 20 41 1e 7e ba 40
       -0.8808151 2.1624324 10.005924 5.827895
000170 ed ac c3 40 10 89 a2 40 45 27 97 40 70 af 1a 40
       6.114859 5.0792313 4.7235436 2.4169579
000180 3c ac f3 40 87 ad 5e 40 59 26 50 40 93 bf e0 40
       7.6147747 3.4793413 3.2523406 7.0233855
000190 c3 c9 46 40 a9 11 3c c0 78 35 08 41 a9 cd 73 40
       3.1060646 -2.938578 8.513054 3.8094275
0001a0 c9 f0 e0 3f 66 e7 1e 41 e1 5b 7d c0 6f f6 22 3f
       1.7573482 9.931494 -3.9587328 0.6365728
0001b0 89 ed 76 3f 1f 48 ec 40 48 53 52 41 2b e5 b0 3f
       0.964562 7.383804 13.145332 1.3819937
0001c0 4d b1 f9 3e fd e0 f6 3f 17 5c 3f c0 12 f9 18 41
       0.48768082 1.9287411 -2.9899957 9.560808
0001d0 72 2b 49 bd fc 82 4c 41 8a 98 0b 41 e2 5e 99 40
       -0.0491137 12.781979 8.724741 4.7928324
0001e0 cc bd 92 40 a4 7d 5f bd b1 bb cc 3e 51 5e 71 40
       4.5856686 -0.05456318 0.39986947 3.7713816
0001f0 cc 15 d2 be e2 c6 07 bf e9 db 3d c0 c8 3b b8 40
       -0.41032255 -0.53037846 -2.9665473 5.7572975
000200 d5 81 8f 3f d8 50 c8 40 5e bb 90 c0 19 72 5a 3f
       1.1211497 6.2598686 -4.522872 0.8533035
000210 c8 0e 10 41 4d 47 01 c0 d5 71 80 40 29 8d 3f 41
       9.003609 -2.0199769 4.0138955 11.971963
000220 0f ff 90 bf 8b a5 f3 3f e3 5c a1 40 8e 64 2e 40
       -1.1327838 1.9034895 5.0425887 2.7248874
000230 8e e9 e1 bf 65 4c d1 40 83 66 02 40 40 f4 1b 41
       -1.76494 6.5405755 2.0375068 9.747131
000240 4b 44 f4 40 0a 99 e6 40 dc c5 88 40 64 da c5 40
       7.6333365 7.2061815 4.2741528 6.182909
000250 58 e3 cf 40 54 5a 9d be 04 95 98 3f bd 51 93 c0
       6.496502 -0.30732977 1.1920476 -4.603728
000260 1a 42 bf bf 13 45 07 c1 d3 5b 83 bf 93 6b 6e 40
       -1.4942048 -8.454364 -1.0262398 3.7253158
000270 d6 d9 12 40 69 a6 8b c0 c8 2a c5 3f c1 f8 c2 40
       2.2945457 -4.3640637 1.5403681 6.0928655
000280 3a 7c 43 40 8f 81 8a 3f 60 24 9e 40 b4 93 c5 40
       3.0544572 1.0820788 4.9419403 6.17428
000290 e4 78 24 41 40 9e a8 40 ba bc e3 bf 65 97 94 40
       10.279514 5.2693176 -1.779197 4.643481
0002a0 39 c5 50 3f 2c 0f cb 40 a0 70 3b 40 65 b9 00 c1
       0.8155094 6.345602 2.928749 -8.045262
0002b0 8c 78 cf c0 45 21 15 c1 7a 49 95 c0 1e bf aa bf
       -6.483465 -9.320622 -4.6652193 -1.3339574
0002c0 17 f9 a6 c0 7e 63 56 bf 4b 62 b7 c0 c1 8c 91 c0
       -5.2179065 -0.83745563 -5.7307487 -4.548432
0002d0 f9 f3 47 c0 6f 53 65 c0 3c ed d3 3f 31 4a f9 bd
       -3.124266 -3.5832174 1.6556773 -0.12172354
0002e0 17 9b 6c c1 f5 14 01 40 d8 41 ec c0 b2 05 9a 3f
       -14.787864 2.016904 -7.3830376 1.2032988
0002f0 87 8a a5 40 ca db 47 41 41 52 cd 40 7a e1 d6 3f
       5.17316 12.491159 6.4162908 1.678756
000300 1b ee 57 40 28 cf 06 41 7c 27 10 3f 02 1d 2f bf
       3.3739078 8.425575 0.5631025 -0.6840364
000310 83 ca eb bf bf f1 45 3e 96 08 08 40 4b e8 10 3f
       -1.8421177 0.193305 2.125524 0.5660445
000320 77 1a 27 c1 a7 ea 0f 40 92 97 a2 40 de 3e 66 c0
       -10.443961 2.248697 5.081002 -3.597587
000330 b0 e8 6b 3f b5 ea 0e bf 95 12 33 40 24 24 d9 c0
       0.9215193 -0.55826885 2.7980092 -6.7856617
000340 4f 11 57 40 b7 10 d8 c0 d9 05 14 c1 0a f8 90 41
       3.3604314 -6.7520404 -9.251428 18.121113
000350 4c 7b da bf c0 09 b2 3f f9 7c 4e c0 91 8f c5 40
       -1.7068877 1.3909225 -3.2263777 6.173775
000360 90 79 d3 c0 8e cb ee bf 5e 15 3c 40 24 b0 ff bf
       -6.608589 -1.865587 2.9388041 -1.9975629
000370 60 fd 98 40 9c ab 77 3f 85 f9 37 40 d4 15 89 c0
       4.7809296 0.9674623 2.8746045 -4.2839146
000380 eb 77 5c bf 63 fd 65 bf 53 fb 0d c1 b6 fd c1 40
       -0.8612048 -0.8983976 -8.873858 6.0622206
000390 20 89 70 40 13 4a 3c 40 bd 7c 17 41 56 e0 d7 3f
       3.7583694 2.9420211 9.467954 1.6865337
0003a0 8b c2 89 40 29 75 b7 3f 30 8c 1b 41 11 16 b2 40
       4.304998 1.433263 9.721725 5.5651937
0003b0 b4 90 c6 40 59 85 99 40 10 08 93 40 fc 08 37 40
       6.205164 4.797528 4.594734 2.8599234
0003c0 28 31 ef 40 69 77 67 40 09 76 58 40 ee 2f a3 40
       7.4747505 3.6166632 3.3822043 5.099601
0003d0 61 bd 52 40 a2 71 c7 c0 ec 3f 5a 41 fb 31 a6 bf
       3.2928088 -6.232621 13.640606 -1.2984003
0003e0 69 be a1 40 b3 5d 19 41 ad 24 42 3d b6 5a 80 3f
       5.0544934 9.585376 0.047398258 1.0027683
0003f0 8d e4 6b 40 15 4b ec 40 52 05 61 41 69 17 2e c0
       3.6858246 7.3841653 14.063799 -2.7201788

encoder.8.bias f4 [8]
000000 ad 84 6d 41 93 aa 30 41 79 86 0b 42 49 bb 01 40
       14.844892 11.041644 34.88132 2.027056
000010 ac c8 87 41 ac 21 84 41 db a8 9a 42 27 dd f4 c0
       16.972984 16.516441 77.329796 -7.651996

encoder.10.weight f4 [8]
000000 0d 9c c5 40 34 35 94 40 7f 9b a1 40 b1 e5 8f 40
       6.175299 4.6314945 5.0502315 4.4967885
000010 11 9e a0 40 d0 55 b4 40 b6 55 a2 40 40 da 8a 40
       5.019295 5.635475 5.0729628 4.339142

encoder.10.bias f4 [8]
000000 24 42 20 c0 ad 08 2f c0 65 25 3e c0 45 b0 34 c0
       -2.504037 -2.7349045 -2.9710324 -2.8232586
000010 44 48 7e c0 67 48 40 c0 6c f5 0f c0 d6 e5 26 c0
       -3.9731607 -3.004419 -2.2493544 -2.607778

encoder.10.running_mean f4 [8]
000000 3d 36 bd 44 44 c5 b3 44 bd 58 ba 44 08 f9 a6 44
       1513.695 1438.1646 1490.7731 1335.7822
000010 7f 16 bc 44 64 62 c1 44 48 05 b9 44 34 ad a8 44
       1504.703 1547.0747 1480.165 1349.4126

encoder.10.running_var f4 [8]
000000 57 c3 61 49 49 2c 57 49 b7 b3 44 49 4f 26 29 49
       924725.44 881348.56 805691.44 692836.94
000010 f5 a9 51 49 c2 fc 5a 49 59 54 3b 49 6a cb 3b 49
       858783.3 896972.1 767301.56 769206.6

decoder.0.weight f4 [8, 8, 3, 3]
000000 ca 5e 84 3d 3d 41 9f c0 cc 64 76 c0 6a c1 1e bf
       0.06463392 -4.9767137 -3.8499022 -0.62013876
000010 1c a2 4c 40 bf 8d 08 c0 f4 32 69 40 55 3f 0e c1
       3.1973944 -2.1336515 3.643735 -8.890462
000020 5a 8f 26 c0 22 d6 c9 bf 7a 6c ac 3f 25 26 e7 bf
       -2.6024995 -1.5768473 1.3470604 -1.8058516
000030 87 3e 2c be da 46 ec bf 86 62 49 3f 8e b1 fc 3f
       -0.16820727 -1.8459122 0.7866596 1.9741685
000040 71 b1 7b 41 7b eb 52 41 bb e7 e6 bf 77 74 b3 c0
       15.730821 13.18249 -1.8039469 -5.607967
000050 7d 4d 3f bf 8f 12 04 3f a7 a1 5d c1 b9 e5 32 c0
       -0.7472761 0.5159082 -13.851966 -2.7952712
000060 a3 b0 fd bf f1 46 1e bd 31 fa 8f bf ec 58 29 bf
       -1.981953 -0.038641874 -1.1248227 -0.6615131
000070 a0 b6 a7 3f bc 5a 99 be e3 c9 2b c0 94 07 88 c0
       1.3102608 -0.29952037 -2.6841972 -4.250925
000080 84 c4 1d 40 ca de aa c0 14 a9 88 c1 1a 55 f6 40
       2.4651194 -5.339696 -17.082558 7.6978884
000090 63 a2 80 3f e5 0e 34 bf 92 7b 80 be 0a a7 d3 3f
       1.0049556 -0.7033523 -0.25094277 1.6535351
0000a0 03 d2 55 40 32 d0 2a 41 79 93 1f 3f 50 7d 64 3f
       3.340943 10.675829 0.623344 0.8925371
0000b0 62 e1 ee 40 04 f8 58 bf a5 62 9e 3f e1 27 14 3f
       7.4650126 -0.8475344 1.2373854 0.5787335
0000c0 05 b9 ed 3f 11 0d 4e 3e 4c 71 e1 c0 39 57 7e 3f
       1.8572088 0.20122172 -7.04508 0.9935184
0000d0 f1 5a a5 c0 65 60 1b c1 92 31 73 be 11 9b 62 3f
       -5.1673512 -9.711034 -0.23749378 0.8851786
0000e0 7c 1c eb bf e2 04 0b c0 35 6a 0f 40 69 1b a3 3f
       -1.8368068 -2.172173 2.2408574 1.274274
0000f0 cf 87 74 c0 d6 dd 4e 41 90 2a 8e 3e c6 7c 03 c0
       -3.820789 12.929159 0.27766848 -2.0544906
000100 a0 19 12 40 71 d9 de c0 76 43 39 40 0b 35 a9 3f
       2.282814 -6.964043 2.8947425 1.3219312
000110 47 96 65 3f 00 71 10 c1 eb c9 d6 c0 93 f9 11 3d
       0.8968243 -9.027588 -6.712148 0.035638403
000120 c5 62 d9 bf 19 1b 9c c0 cc 95 eb bf d1 2c 57 bf
       -1.6983267 -4.878308 -1.8405089 -0.8405276
000130 b0 78 02 be 61 38 1f 41 11 31 9b c0 1d db b9 3f
       -0.12741351 9.951264 -4.8497396 1.4519993
000140 b9 1b b6 3f 5b 77 a7 40 b4 5d 69 c0 74 47 ee be
       1.422721 5.2333198 -3.6463442 -0.4653889
000150 c4 07 d1 3f d9 d2 6b 3f fd 1a f9 be 84 d1 2b 40
       1.6330495 0.92118603 -0.48653403 2.6846628
000160 55 31 22 c0 0b 0c f7 c0 3f a1 6a 40 ef b5 83 3e
       -2.534261 -7.72022 3.6660917 0.25724742
000170 a1 00 25 40 e2 a3 ac c0 39 aa ef 40 4a 0a 1e 40
       2.5781634 -5.395005 7.489529 2.469378
000180 81 9c a4 3f 03 8d 8a c0 1c 99 39 40 c1 d2 0c 40
       1.2860261 -4.3297133 2.89997 2.2003634
000190 6d e9 f7 bf 02 43 50 c0 04 33 aa c0 eb 89 5b c0
       -1.9368111 -3.2540898 -5.3187275 -3.4302928
0001a0 02 3f 05 c0 13 ff 23 c0 d3 ce 8d 40 cc 57 6d c0
       -2.0819707 -2.5624435 4.431497 -3.7084837
0001b0 e2 91 69 c0 25 48 83 40 14 e3 05 3f ed 73 18 40
       -3.649529 4.1025567 0.5229962 2.3820755
0001c0 f3 28 6b 40 61 06 10 40 22 f1 b4 3f ab 31 8e 3e
       3.6743743 2.2503893 1.4136088 0.2777227
0001d0 3e 5d 8a c0 3b 24 6a 40 bf 6b 10 c0 22 bc 40 bf
       -4.323882 3.6584613 -2.2565763 -0.7528707
0001e0 07 5c 6d c0 27 85 08 c0 33 ae a8 c0 de ce b6 bf
       -3.708742 -2.133127 -5.2712646 -1.4281881
0001f0 e1 09 15 c1 73 26 9c 3e 40 9a b1 bf 48 d2 83 40
       -9.314912 0.30498084 -1.3875198 4.119419
000200 3f 3c b3 c0 57 2e 35 c0 eb 65 82 41 76 99 82 bf
       -5.6011043 -2.8309534 16.299765 -1.0203083
000210 f3 7a 66 40 f7 eb b4 c0 0d 18 07 40 8e 4e 9b c0
       3.6012542 -5.6538043 2.110843 -4.853339
000220 1e 99 ce bb 8c d7 03 c1 ac a9 be bf 5e 35 c0 40
       -0.006304874 -8.240124 -1.489553 6.0065145
000230 42 2f ed c0 bf d0 bb 3f 76 40 6e 40 53 49 c3 c0
       -7.412019 1.4673079 3.7226844 -6.1027007
000240 6f 11 6d 40 5f cb 84 40 91 2d 99 c0 6a 2e 87 c0
       3.704189 4.1498256 -4.7868123 -4.224416
000250 e5 a7 13 bf 66 ce d4 40 c2 2b c1 bf 3a ed fc 40
       -0.5767806 6.650195 -1.5091479 7.9039583
000260 37 d6 9a c0 1b 0e 98 c0 34 41 c3 40 9b 21 54 c0
       -4.8386493 -4.751722 6.1017094 -3.314551
000270 d7 4b 10 c0 f0 b2 0f 40 87 cf 81 3f d5 76 7c c0
       -2.254629 2.2452965 1.0141457 -3.944753
000280 02 fd 34 c1 75 5d 00 40 5f f1 1c c1 cb a5 91 c0
       -11.3117695 2.0057042 -9.8089285 -4.5514884
000290 4e bb 0d 3f 3f fa bf 40 4b 4b d2 40 a3 17 51 c0
       0.5536393 5.9992976 6.571691 -3.2670677
0002a0 98 1f 6d 3f 1d cd cd bf 72 c1 c7 bf be 06 08 c0
       0.92626333 -1.6078221 -1.560591 -2.1254115
0002b0 5b b6 45 40 cc 9f df bf ba 5c b3 40 a2 0d 2c c1
       3.089255 -1.7470641 5.605069 -10.753328
0002c0 f9 d4 8d 40 4d a6 12 41 55 47 7c c0 a2 c9 98 be
       4.4322476 9.165601 -3.9418538 -0.29841334
0002d0 ff 51 86 40 31 71 a9 bf b2 c8 8d bd f3 6d 0e c0
       4.1975093 -1.3237668 -0.06923045 -2.2254608
0002e0 4c 55 75 c0 bf 47 8d 40 61 d1 a1 be b2 c6 24 bf
       -3.833331 4.415008 -0.31605056 -0.64365685
0002f0 6f 3c 8a c0 b1 f9 00 c0 98 ed 44 40 d1 02 44 bf
       -4.319877 -2.01524 3.0770016 -0.765668
000300 22 c3 ea 3e 91 fd 19 41 f5 a7 39 bf 45 e5 66 3f
       0.45852 9.624406 -0.7252191 0.9019359
000310 f5 0d 1f 41 f4 e3 c3 c0 b4 61 40 3f 96 53 4c 40
       9.9409075 -6.1215763 0.75149083 3.1926017
000320 ba c8 3b c0 24 49 a6 40 ec ea 98 c0 83 3e 61 40
       -2.9341264 5.1964283 -4.778677 3.5194404
000330 12 9a c1 3e 50 48 24 c1 57 3b 39 40 97 03 08 41
       0.3781286 -10.267654 2.8942468 8.500876
000340 8a 0e f7 40 ec 10 12 c1 41 b4 03 c0 0b 53 87 c0
       7.720525 -9.129131 -2.0578768 -4.228887
000350 38 b8 c9 40 63 4d f9 3f e2 5f ae 40 4c 76 ad bf
       6.3037376 1.9476742 5.4492044 -1.3551726
000360 f5 a8 a5 bd a1 86 27 41 4e 68 15 41 64 86 28 c0
       -0.080888666 10.470368 9.337965 -2.6332026
000370 d9 91 92 c0 67 c8 c0 c0 fa 17 87 3f 0b e3 7f bf
       -4.5803037 -6.024463 1.0554192 -0.99955815
000380 ab 7d cb 40 db 15 52 bf 75 a3 a3 bf f7 71 9c 40
       6.3590903 -0.820646 -1.2784258 4.8889117
000390 06 b1 42 bd 52 d4 09 c0 e4 35 b6 3f 1d 60 4b c0
       -0.047532104 -2.153584 1.4235196 -3.1777413
0003a0 34 68 0f c0 99 6f 13 c0 8c 4b 87 c0 13 99 d3 40
       -2.240735 -2.3036864 -4.227972 6.612436
0003b0 c7 7e 9b 40 1a e4 c7 40 4d d5 30 40 c4 6c 95 40
       4.8592257 6.2465944 2.7630188 4.669527
0003c0 8a de 84 c0 2b 75 9e 40 3a 60 b6 3d a6 78 5d bf
       -4.1521654 4.9518027 0.089050725 -0.8651222
0003d0 9e b5 d0 bf 5d 40 9c bf 39 34 be 40 90 33 8d 40
       -1.6305425 -1.2207142 5.943875 4.4125443
0003e0 2f 20 be c0 f3 83 1b 41 d5 6d e4 3f 3b 6d bc 3d
       -5.9414287 9.719714 1.7846018 0.092005216
0003f0 c9 71 86 3f f9 42 dc 40 d2 04 13 40 bd e4 97 3f
       1.0503474 6.8831754 2.2971692 1.186668

decoder.0.bias f4 [8]
000000 28 1b a7 41 af ef 51 41 e7 d5 f4 41 b4 63 a2 42
       20.88826 13.1210165 30.604445 81.19473
000010 5f 5d 63 40 39 8b 2c 42 1a d8 96 41 49 6d e3 41
       3.552574 43.13596 18.855518 28.428362

decoder.2.weight f4 [8]
000000 b0 4e 29 40 49 d7 a9 40 dd cd 4e 40 69 36 77 40
       2.6454277 5.30753 3.231315 3.862696
000010 cd 8e 8e 40 23 c4 80 40 9e 96 99 40 77 7a 7a 40
       4.4549317 4.0239425 4.799636 3.9137247

decoder.2.bias f4 [8]
000000 da 8a 39 40 77 a7 1e be e1 e1 80 bf 9d 8e 88 3f
       2.8990998 -0.1549357 -1.0068933 1.0668522
000010 ff 36 03 bf 24 c5 c2 bf 2c 97 7d bf 75 8f e3 bb
       -0.5125579 -1.5216413 -0.99058795 -0.0069445916

decoder.2.running_mean f4 [8]
000000 ac 43 aa 41 71 0a a8 41 2f df ab 41 b5 8a 8d 42
       21.283043 21.005098 21.483976 70.77091
000010 2c bb 76 41 f8 75 1b 42 b9 56 ea 41 e2 d7 bb 41
       15.420696 38.865204 29.292345 23.480412

decoder.2.running_var f4 [8]
000000 02 f5 24 43 0f 66 f8 43 36 8d 44 43 83 bb 99 43
       164.95706 496.79733 196.5516 307.46494
000010 a1 09 9b 43 7e ba 84 43 67 9a 98 43 22 78 68 43
       310.07523 265.45697 305.20627 232.46927

decoder.3.weight f4 [8, 16, 2, 2]
000000 c1 ab 3d c0 41 5d cd 3f 66 a1 e7 3f bb 2c 7b bf
       -2.963608 1.6044084 1.809613 -0.9811513
000010 e1 e1 2b 40 23 4c 9d c0 be 4c f4 40 47 e8 f3 40
       2.6856616 -4.915544 7.634368 7.622104
000020 31 5a 8c 40 94 c0 2a c0 fe 4d 84 40 3b 96 da 40
       4.3860097 -2.668004 4.1345205 6.8308387
000030 a7 08 7a c0 d2 f6 fb c0 17 3e 4f c0 9d f7 23 c0
       -3.906778 -7.8738794 -3.2381647 -2.561988
000040 fd b2 42 40 43 3c 6f 40 74 89 e2 bf 11 b0 b4 bf
       3.0421746 3.738053 -1.7698197 -1.4116231
000050 dd 32 69 c0 23 b5 05 c1 fc 49 9c c0 8a bd 3c c1
       -3.6437294 -8.356723 -4.8840313 -11.796274
000060 dc c8 bf bf b0 6c df bf 60 c7 99 40 a3 9e 18 41
       -1.4983172 -1.7455044 4.805588 9.53873
000070 c1 04 8a 3f 2a 4d 9e bf cd b8 87 c0 85 c6 93 c0
       1.0782701 -1.2367299 -4.2413087 -4.6179833
000080 fa 63 7b c0 86 c0 65 bf 1e cc 02 40 8d f7 52 3f
       -3.927977 -0.8974689 2.0437083 0.8240898
000090 16 14 c3 bf 90 43 30 c1 5e 6c d8 c0 65 f9 3e 40
       -1.5240505 -11.016495 -6.7632284 2.9839718
0000a0 fa 0a b2 c0 1a 3d a1 bf 00 c3 88 bf e1 22 54 c0
       -5.56384 -1.2596772 -1.0684509 -3.3146288
0000b0 e4 56 82 c0 44 ad 1f 40 2a 41 f8 c0 67 11 dd bf
       -4.073107 2.4949503 -7.7579546 -1.7270936
0000c0 7c 0c ee c0 28 8a 7a c0 a4 09 7f c0 f0 31 c3 bf
       -7.439024 -3.9146824 -3.9849634 -1.5249615
0000d0 4c 4e 9c bd db 43 fc bd 17 82 49 be a3 67 a7 3f
       -0.076321214 -0.1231763 -0.19678532 1.3078502
0000e0 e4 fc f1 c0 f8 34 1d 41 ed db f0 c0 47 9e c6 40
       -7.5621204 9.825432 -7.5268464 6.206821
0000f0 e0 af 00 c0 fd 58 4f 3f f6 98 22 40 7c 8e ba 40
       -2.0107346 0.8099516 2.540586 5.829893
000100 ca 7f 33 3f f3 19 61 c0 69 de ca c0 6a 4d 7b c0
       0.70116866 -3.5172088 -6.3396497 -3.9266
000110 c5 66 e1 c0 12 fb f6 40 ec 98 c9 3f bc 64 0a c0
       -7.043795 7.718148 1.5749793 -2.1623983
000120 30 4e a8 c0 a4 0f 5b 40 4a a3 e1 3f d9 d4 88 40
       -5.2595444 3.4228296 1.7627957 4.2759824
000130 b8 b0 b9 3f ef e6 70 c1 ae 95 fa be 1b f6 f2 3f
       1.4507055 -15.05638 -0.48942322 1.8981355
000140 c1 3c 96 be 25 50 00 40 72 9a 06 c1 df 06 06 c1
       -0.29343227 2.0048916 -8.412706 -8.3766775
000150 a8 7f 65 c0 6b 54 30 c1 95 80 01 c1 08 03 50 40
       -3.5859165 -11.02061 -8.093892 3.250185
000160 1c 74 9f 40 fe 7c 01 c1 7d 49 a9 40 ce e5 2a 3f
       4.9829235 -8.093016 5.2902207 0.66756904
000170 61 1c 81 40 80 bf e8 c0 3c f9 d7 c0 e9 e4 b3 40
       4.034714 -7.2733765 -6.749174 5.621693
000180 28 3f c8 40 ca f3 d9 c0 47 11 3d 41 f8 2e 87 3f
       6.2577095 -6.8110094 11.816718 1.0561209
000190 86 12 67 3e f8 5b 6d c0 c8 0f 1f 3e 8d a0 57 be
       0.2256566 -3.7087383 0.15533364 -0.21057339
0001a0 39 4f bc c0 a5 39 1d c0 db 1e db 3f 50 e2 df c0
       -5.8846707 -2.4566433 1.7118791 -6.996376
0001b0 06 4e 2e bf 9b 52 8f bd b1 4d 9f 3f 36 8f 98 c0
       -0.68087804 -0.069981776 1.2445585 -4.767482
0001c0 fa 3e 0b c1 89 28 b8 3f ea 9c 44 bf 09 d4 f6 40
       -8.702875 1.438737 -0.7680193 7.713383
0001d0 0f f1 9d b5 1a e5 05 bd 03 d4 6e 3e 1d 5a 6e 3f
       -1.1767569e-06 -0.03268919 0.23323064 0.9310625
0001e0 c4 48 ba 40 4c c0 02 c0 38 cc 09 bf 3c e8 f1 bf
       5.8213825 -2.0429869 -0.5382724 -1.8898997
0001f0 66 13 22 c0 8e 72 17 c1 f2 b4 10 c1 9a 51 29 c1
       -2.532434 -9.465467 -9.044176 -10.582422
000200 6f 48 5a c0 aa 1c c5 c0 82 fb a3 c0 6c 59 de 3e
       -3.410671 -6.159749 -5.1244516 0.43427598
000210 a1 cc 38 40 b8 a0 ab be ae 20 68 c0 74 d8 4a c0
       2.8874896 -0.33521056 -3.6269946 -3.1694613
000220 61 4d fd bf cb 6d 45 3e 6e 6a 5f 41 66 e3 32 3f
       -1.9789239 0.19280164 13.963484 0.6987823
000230 ac 42 38 c0 df 5f 81 40 4c ee 8c 40 c2 31 bb c0
       -2.8790693 4.042953 4.404089 -5.849824
000240 40 23 1b c0 e6 c9 05 c1 08 c1 f6 bf 3d 49 16 c1
       -2.4240265 -8.361792 -1.9277658 -9.39288
000250 67 07 9b 3c e8 7c 45 3f f3 70 41 3f 51 f5 b4 c0
       0.018924428 0.77143717 0.7556297 -5.654946
000260 8f cb 88 40 fc f0 a9 bf 51 49 92 c0 9d f3 09 40
       4.2748485 -1.3276668 -4.5714498 2.155494
000270 4f 83 1e c0 f2 92 3b 40 57 cb 61 bf 68 5f 6f bf
       -2.4767644 2.9308438 -0.88200897 -0.93504953
000280 fa bb 19 bf 2c 31 4b c0 d6 c6 d9 3f 55 3f 26 bd
       -0.60052454 -3.1748762 1.7013805 -0.040587742
000290 de 76 a1 40 01 b6 46 c0 9d 35 c2 c0 1a 04 32 41
       5.04576 -3.1048586 -6.0690446 11.126001
0002a0 1e 5e 14 c0 50 33 03 41 b9 5e 8e c0 7e 87 35 41
       -2.3182445 8.200027 -4.449063 11.345579
0002b0 3c b3 3a 3d 59 33 f9 3f b3 be 0d 3d 4b 7c 1d 41
       0.045581087 1.9468795 0.034605693 9.842845
0002c0 4b 99 9d bf c7 f3 53 40 08 28 a9 c0 0b cf dc bf
       -1.2312406 3.311754 -5.2861366 -1.7250684
0002d0 86 9a 2a bd 8c 90 f0 3c 65 f4 43 c0 f4 bf 98 bd
       -0.04165127 0.0293658 -3.0617917 -0.07458487
0002e0 92 32 6d c0 6b 5d 68 40 ea a1 19 c0 91 65 c3 bf
       -3.7062116 3.6307018 -2.4005075 -1.5265371
0002f0 96 38 06 c0 fb 91 0e 40 05 ec 7d 41 0d c8 a6 40
       -2.0972037 2.22766 15.870122 5.2119203
000300 ad 4b 82 c0 74 95 e0 bf 4d 2a 4d c0 39 bf 94 c0
       -4.071738 -1.754561 -3.2057068 -4.6483426
000310 ed ef 02 3e ed a0 75 c0 9e 2b d7 3f 15 9a 01 c0
       0.12786837 -3.8379471 1.6810186 -2.0250294
000320 54 ad 18 c0 ca 13 4c 41 ff 1c 3e 41 83 e4 d8 3f
       -2.385579 12.754831 11.882079 1.6944736
000330 3d 83 60 c0 50 0a b2 c0 54 3a 03 41 6c b3 23 c1
       -3.5080101 -5.563759 8.20174 -10.231304
000340 65 eb fd 40 7b 47 9d 40 84 98 d2 3e 6d 63 d9 3e
       7.9349847 4.9149756 0.41131985 0.42458668
000350 30 81 00 3f d0 fa 05 c0 0f 89 27 40 06 5b 66 40
       0.50197124 -2.0934334 2.6177404 3.5993056
000360 b4 a8 aa 40 09 6c 0c 41 db 41 54 c0 e8 5a 50 c1
       5.3330936 8.776376 -3.3165195 -13.022194
000370 7a 60 5f 40 6c 3d 91 be 6d 4c ff 40 e9 c3 15 40
       3.4902635 -0.28367174 7.9780793 2.3400824
000380 82 ca 34 40 ed 06 33 3f 2a 21 50 40 e7 3d 17 40
       2.82486 0.6993244 3.2520242 2.3631532
000390 c2 21 1e 3f c4 11 54 3f 8d 2e b6 40 91 83 04 40
       0.6177026 0.8283961 5.6931825 2.0705302
0003a0 f1 a4 18 c0 24 6c 1a 41 76 26 c7 bf 1e 48 be c0
       -2.3850672 9.6514015 -1.5558612 -5.9463034
0003b0 0d 58 59 3e 0e 55 6c 40 73 71 a4 be bb 98 53 c0
       0.21224995 3.6926913 -0.32117805 -3.306197
0003c0 95 86 f4 40 21 73 e8 c0 4c 4a 79 40 bf f4 1f 40
       7.6414285 -7.264054 3.8951597 2.499313
0003d0 0d 26 49 3c 18 0a 68 bd d3 8e 82 40 1c 38 75 40
       0.012277138 -0.05665025 4.0799346 3.8315496
0003e0 34 71 7a bf 87 85 7e c0 38 35 fd bf de 80 27 c0
       -0.97828984 -3.9768999 -1.9781866 -2.6172404
0003f0 6a 87 d3 3f ee a4 f4 3f e5 76 04 c1 02 e5 13 41
       1.65257 1.9112833 -8.279027 9.24341

decoder.3.bias f4 [16]
000000 75 92 e1 41 9d 7b 35 c0 0c e0 c6 41 48 65 2f 41
       28.196512 -2.8356698 24.859398 10.962227
000010 d0 a3 04 42 cf 18 e2 c0 74 b7 94 c1 b1 83 27 c0
       33.159973 -7.0655284 -18.589577 -2.6174128
000020 c7 fd 9b c1 b1 d2 93 41 ed 1d f1 41 5a 93 03 42
       -19.498915 18.477877 30.139612 32.893898
000030 18 c8 ee 40 e0 00 ca c1 71 d5 89 c0 7b 08 3d 41
       7.4619255 -25.250427 -4.307305 11.81457

decoder.5.weight f4 [16]
000000 7e 33 8c 40 e5 d2 c1 40 60 dc b3 40 99 22 6f 40
       4.3812857 6.056994 5.6206512 3.7364867
000010 62 2d 66 40 bf 81 b3 40 31 a5 5f 40 ad ca 50 40
       3.59652 5.609588 3.4944575 3.2623703
000020 45 ec 96 40 6c a7 ad 40 0f 7d b5 40 82 6b d8 40
       4.7163415 5.4266872 5.671516 6.7631235
000030 07 7b 89 40 c8 c6 ea 3f b9 06 5b 40 a0 61 91 40
       4.296268 1.8341913 3.4222853 4.543167

decoder.5.bias f4 [16]
000000 91 48 55 3f 99 72 1c c0 40 a8 51 40 b5 49 97 3f
       0.8331385 -2.4444945 3.2758942 1.1819369
000010 7b ce 09 40 ef 39 1a 3f 33 e5 bf 3f 01 35 e6 bf
       2.1532276 0.6024465 1.4991821 -1.7984926
000020 a6 26 bf 3f 09 21 0f 3d a0 f4 20 40 b2 7d 98 40
       1.493367 0.034943614 2.5149307 4.7653437
000030 48 c0 00 40 bc d5 e0 c0 e9 55 59 be 9a 54 67 be
       2.011736 -7.0260906 -0.21224178 -0.22590867

decoder.5.running_mean f4 [16]
000000 4d 8a 1b 42 e9 16 ce 41 72 4b 55 42 bc cf a3 41
       38.88506 25.761187 53.323677 20.476433
000010 0a da 43 42 c9 25 5a 41 17 90 7a 41 e4 0b 4b 41
       48.96293 13.634225 15.660178 12.690403
000020 71 dc 7b 41 4a 47 06 42 58 b0 1b 42 78 c8 14 42
       15.741319 33.56962 38.92221 37.19577
000030 95 9d df 41 bf bd b9 40 f7 a3 b2 41 ef 9f 0f 42
       27.951944 5.8044124 22.330061 35.906185

decoder.5.running_var f4 [16]
000000 e5 43 85 44 37 62 09 45 5f c1 ec 44 ef c1 e7 44
       1066.1217 2198.1384 1894.0428 1854.0604
000010 2e 4f 96 44 b2 d9 ba 43 ee 61 60 44 b0 e8 62 44
       1202.4744 373.70074 897.53015 907.63574
000020 7a 20 a7 44 d7 9e 91 44 28 ec a1 44 3d e4 99 44
       1337.0149 1164.9637 1295.3799 1231.1324
000030 1f fe 92 44 e6 f6 2c 43 3a 7f 6d 44 6d 1e ac 44
       1175.9413 172.96445 949.9879 1376.9508

decoder.6.weight f4 [16, 32, 2, 2]
000000 18 0a 5b 3c f1 72 a4 c0 3b 7d b5 bf ae eb 09 3f
       0.013369106 -5.139031 -1.4178842 0.53875244
000010 84 c5 ba 40 37 7d be 40 2e 3d 98 c0 0f f1 ad bf
       5.836611 5.952785 -4.757468 -1.358919
000020 99 f2 63 bd 2b bb c0 3f e7 c9 04 41 aa a5 83 40
       -0.05565128 1.5057119 8.299293 4.1139727
000030 f4 3c ba 3e 02 63 3e 40 5a a5 3a c1 da 66 8d c0
       0.3637463 2.974793 -11.665369 -4.418805
000040 9c 28 5f 41 34 96 ac 40 74 0f 2a c1 b4 e8 35 3f
       13.947414 5.3933353 -10.628773 0.710582
000050 aa 8e 8c c0 2a 9e 1d c1 dd 44 cf 40 91 22 25 40
       -4.392415 -9.851114 6.477156 2.5802348
000060 5f 73 ba 40 c2 c6 f8 3f c7 6d 6d 3f 9e 9b 89 3e
       5.8265834 1.9435656 0.9274563 0.2687654
000070 e3 c7 8c c0 ec 35 01 c0 d0 e2 66 bf 96 bc 79 3f
       -4.3994 -2.0189161 -0.9018984 0.97553384
000080 2d a0 8d be 40 cc 93 40 9b 13 a0 40 e3 ca b4 40
       -0.27661267 4.618683 5.0023932 5.6497664
000090 79 bc d3 3c 65 4a 18 41 43 aa d8 3f 33 ae 35 40
       0.025846707 9.518163 1.692696 2.8387573
0000a0 21 b5 7f c0 e7 a2 49 41 ef 67 8f 41 18 45 68 c0
       -3.9954302 12.602271 17.925749 -3.6292171
0000b0 d5 c8 4d 40 51 59 a2 3f d2 04 a0 40 57 32 34 41
       3.2153828 1.2683507 5.0005884 11.26229
0000c0 ba d2 80 40 09 aa 33 c0 be 83 c1 40 85 b6 1f 40
       4.0257235 -2.8072531 6.047332 2.495515
0000d0 cb 0c 70 bf fd d8 32 40 fd 05 12 40 c7 55 05 41
       -0.9376952 2.794494 2.2816155 8.333442
0000e0 d1 2d 4a 40 13 01 dd c0 a4 32 42 40 74 e2 dc bf
       3.1590464 -6.906381 3.0343409 -1.7256608
0000f0 af c9 e4 40 5b 1a 94 c0 23 30 95 40 15 fd a5 bf
       7.1496196 -4.628217 4.662126 -1.296786
000100 67 7f 35 c0 e7 72 49 40 d3 11 af c0 1e 50 75 c0
       -2.835901 3.147638 -5.470926 -3.833015
000110 af 10 73 40 ed ca 2b 40 92 6b 12 41 33 92 d7 40
       3.7978933 2.6842606 9.151262 6.7365966
000120 c9 2b ac 40 00 a4 81 3f f1 95 a0 40 39 5e e8 3f
       5.380345 1.0128174 5.0183034 1.8153754
000130 7d ad ee 3f 4e 2e 72 3e 53 21 59 c0 6e fd 43 3f
       1.8646694 0.23650476 -3.392659 0.7655858
000140 bd 66 6b c0 d8 75 f8 bf c1 df e1 40 c5 9e da 40
       -3.6781456 -1.9410963 7.0585637 6.831881
000150 60 c6 4e 40 32 90 c0 40 4e be 94 3f 8a 87 00 c0
       3.2308578 6.017602 1.1620576 -2.0082726
000160 97 10 a4 c0 b3 61 26 c0 5a c0 17 41 ce 19 19 40
       -5.127025 -2.599713 9.484461 2.3922
000170 74 f2 2d c1 5b 7f fc bf 13 32 94 40 d7 c1 e1 40
       -10.871693 -1.9726366 4.6311126 7.054912
000180 6e 92 2a 40 ab 91 f4 40 63 94 c6 3f bd 63 fa 40
       2.6651874 7.6427817 1.5514034 7.824675
000190 df 5f 08 c0 22 e0 30 40 eb d9 9c 3f 69 6c f8 bf
       -2.1308515 2.76368 1.2254003 -1.9408084
0001a0 da c0 1c 3d e4 29 9d 40 c4 bc f7 3f 68 a0 45 40
       0.038269855 4.9113636 1.9354482 3.0879154
0001b0 a3 8b 35 3f a3 27 10 3f 45 e5 e9 40 a2 88 9e bf
       0.70916194 0.5631048 7.309237 -1.2385447
0001c0 98 2c ae c0 03 02 b1 3f 81 4d ae c0 db dd 41 c0
       -5.4429436 1.3828739 -5.446961 -3.029166
0001d0 9c d4 10 40 89 57 c9 40 3a 7f 0a c0 8d 0c d3 bf
       2.2629766 6.2919354 -2.1640153 -1.6488205
0001e0 84 85 86 c0 79 88 ce 3f 29 f2 15 c1 15 80 96 3e
       -4.2037983 1.6135398 -9.371621 0.29394594
0001f0 de 2a a2 c0 af 98 09 c0 b2 1f 09 40 a9 3f ad c0
       -5.067733 -2.149944 2.1425595 -5.414021
000200 8c 27 11 3c 7f 59 8c c0 af f6 de 3f ca 2b 26 40
       0.008859526 -4.385925 1.7419032 2.5964227
000210 d2 fd 1b c0 1c 4d 4c c1 43 89 eb 3f a3 95 06 3f
       -2.437367 -12.768826 1.8401264 0.5257208
000220 6b 47 4e bb 6b ae b6 40 17 89 9e 40 1f c4 c1 40
       -0.0031475674 5.7087913 4.9542346 6.0551906
000230 da 38 a3 c1 51 20 85 c0 d0 41 1f c0 74 14 71 40
       -20.40276 -4.160195 -2.4883919 3.7668734
000240 0f c5 43 c0 80 7b e4 40 3a d1 0a c1 82 4b c3 3e
       -3.0589025 7.1400757 -8.676081 0.38143545
000250 27 a4 c3 bf 13 14 c4 c0 8c 24 a2 40 a4 11 82 bf
       -1.528447 -6.1274505 5.0669613 -1.0161633
000260 6f de 28 c1 7b a6 73 c0 98 b7 d9 c0 9a d4 b5 c0
       -10.554305 -3.8070362 -6.8036613 -5.6822023
000270 e0 b4 03 c0 fb 85 d9 c0 5d af aa c0 5d 99 e4 c0
       -2.0579147 -6.797605 -5.3339067 -7.143721
000280 02 f2 13 be 70 6d 5d 3f 95 85 51 c0 5a d3 55 40
       -0.14447787 0.86495113 -3.2737782 3.3410249
000290 00 0b b0 3e e3 b8 da c1 ae f9 f7 40 85 49 f3 bf
       0.34383392 -27.340277 7.7492285 -1.9006811
0002a0 7f 08 02 40 ea 05 da 40 0d 52 11 c0 9b f2 e7 c0
       2.0317686 6.813222 -2.270633 -7.248365
0002b0 e3 98 61 c0 73 8a 03 3f 18 0f 40 c1 bc 9f 92 c1
       -3.5249565 0.5138313 -12.003685 -18.327995
0002c0 aa be 08 c0 da 76 76 c0 7a 63 ee c0 82 45 cc c1
       -2.1366372 -3.8510041 -7.449643 -25.53394
0002d0 56 89 56 bf 8f 37 c9 3f 58 54 56 c0 4c f2 1d c1
       -0.8380331 1.572008 -3.348898 -9.8716545
0002e0 99 fa 53 3f 33 29 36 40 19 fe 40 41 2e 9a 44 c0
       0.82804257 2.8462646 12.062036 -3.0719104
0002f0 a0 38 24 c1 40 cb 27 c1 9f a5 23 40 4e cf 14 40
       -10.263824 -10.487122 2.5569837 2.3251529
000300 59 4e 9b 40 dc 35 64 bf 18 0c ca 3f 8c 2b bb 40
       4.853314 -0.8914468 1.5784941 5.849066
000310 22 d0 de c0 70 f6 c4 bf 78 42 62 c0 bd 53 03 c1
       -6.962907 -1.5387707 -3.535307 -8.207944
000320 9f 28 0e c1 a7 3b ce be 83 e6 63 c0 7e b4 62 c0
       -8.884917 -0.40279886 -3.5609443 -3.5422664
000330 02 4e 07 bf 60 ef e4 bf c5 da a0 c0 de 17 70 c0
       -0.52853405 -1.7885551 -5.0267053 -3.7514567
000340 09 f8 09 be 16 70 d8 3d eb 76 6a c1 aa 09 c0 c0
       -0.13473524 0.10568254 -14.654033 -6.0011797
000350 81 25 4f c1 62 e7 dd 40 b6 e9 78 bf 77 6a 34 be
       -12.946656 6.934495 -0.97231615 -0.17618738
000360 a4 92 2d c0 b1 1e 11 bf c8 0d bb bf 7e 33 3e c0
       -2.7120752 -0.56687456 -1.4613581 -2.9718928
000370 70 19 07 c0 2e a7 1d 3e 5a c7 0d c0 bb f2 67 c0
       -2.1109276 0.15395805 -2.2152925 -3.62419
000380 ab a8 1b c0 f0 58 9e c0 0e df 6f 3e 16 e9 cd 3f
       -2.4321697 -4.9483566 0.23424932 1.6086757
000390 b8 c4 5e bf b9 fa b9 bf 28 4b a6 3f ec ee 26 41
       -0.8701892 -1.452964 1.2991686 10.433331
0003a0 aa db 4a 40 74 32 82 bf fc 11 59 c0 b6 59 19 41
       3.1696572 -1.0171647 -3.3917227 9.584402
0003b0 f7 68 c9 c0 83 8e dc bf f0 9d 8b be 6c 0b 61 bf
       -6.294063 -1.7230991 -0.27268934 -0.87908053
0003c0 ca 9e 71 bf 70 15 bb c1 75 5a 6e c0 45 54 06 be
       -0.9438292 -23.385468 -3.724271 -0.13118084
0003d0 2e 27 ad 3e 1d 75 00 c1 95 97 a7 c0 a4 a4 b9 c0
       0.33818954 -8.028592 -5.2372537 -5.8013477
0003e0 5f 49 e2 c0 ef 72 8c c0 04 08 95 c0 d4 f2 91 c0
       -7.0714564 -4.38903 -4.6572285 -4.560892
0003f0 c4 82 0e c1 1e 2c eb bf fa 35 f0 c0 45 11 b9 c0
       -8.906925 -1.8372838 -7.506589 -5.783358
